OK
OK
Model: "model"
__________________________________________________________________________________________________
Layer (type)                    Output Shape         Param #     Connected to                     
==================================================================================================
input_1 (InputLayer)            [(None, 256, 256, 1) 0                                            
__________________________________________________________________________________________________
conv2d (Conv2D)                 (None, 256, 256, 32) 320         input_1[0][0]                    
__________________________________________________________________________________________________
re_lu (ReLU)                    (None, 256, 256, 32) 0           conv2d[0][0]                     
__________________________________________________________________________________________________
dropout (Dropout)               (None, 256, 256, 32) 0           re_lu[0][0]                      
__________________________________________________________________________________________________
conv2d_1 (Conv2D)               (None, 256, 256, 32) 9248        dropout[0][0]                    
__________________________________________________________________________________________________
re_lu_1 (ReLU)                  (None, 256, 256, 32) 0           conv2d_1[0][0]                   
__________________________________________________________________________________________________
dropout_1 (Dropout)             (None, 256, 256, 32) 0           re_lu_1[0][0]                    
__________________________________________________________________________________________________
max_pooling2d (MaxPooling2D)    (None, 128, 128, 32) 0           dropout_1[0][0]                  
__________________________________________________________________________________________________
conv2d_2 (Conv2D)               (None, 128, 128, 64) 18496       max_pooling2d[0][0]              
__________________________________________________________________________________________________
re_lu_2 (ReLU)                  (None, 128, 128, 64) 0           conv2d_2[0][0]                   
__________________________________________________________________________________________________
dropout_2 (Dropout)             (None, 128, 128, 64) 0           re_lu_2[0][0]                    
__________________________________________________________________________________________________
conv2d_3 (Conv2D)               (None, 128, 128, 64) 36928       dropout_2[0][0]                  
__________________________________________________________________________________________________
re_lu_3 (ReLU)                  (None, 128, 128, 64) 0           conv2d_3[0][0]                   
__________________________________________________________________________________________________
dropout_3 (Dropout)             (None, 128, 128, 64) 0           re_lu_3[0][0]                    
__________________________________________________________________________________________________
max_pooling2d_1 (MaxPooling2D)  (None, 64, 64, 64)   0           dropout_3[0][0]                  
__________________________________________________________________________________________________
conv2d_4 (Conv2D)               (None, 64, 64, 128)  73856       max_pooling2d_1[0][0]            
__________________________________________________________________________________________________
re_lu_4 (ReLU)                  (None, 64, 64, 128)  0           conv2d_4[0][0]                   
__________________________________________________________________________________________________
dropout_4 (Dropout)             (None, 64, 64, 128)  0           re_lu_4[0][0]                    
__________________________________________________________________________________________________
conv2d_5 (Conv2D)               (None, 64, 64, 128)  147584      dropout_4[0][0]                  
__________________________________________________________________________________________________
re_lu_5 (ReLU)                  (None, 64, 64, 128)  0           conv2d_5[0][0]                   
__________________________________________________________________________________________________
dropout_5 (Dropout)             (None, 64, 64, 128)  0           re_lu_5[0][0]                    
__________________________________________________________________________________________________
max_pooling2d_2 (MaxPooling2D)  (None, 32, 32, 128)  0           dropout_5[0][0]                  
__________________________________________________________________________________________________
conv2d_6 (Conv2D)               (None, 32, 32, 256)  295168      max_pooling2d_2[0][0]            
__________________________________________________________________________________________________
re_lu_6 (ReLU)                  (None, 32, 32, 256)  0           conv2d_6[0][0]                   
__________________________________________________________________________________________________
dropout_6 (Dropout)             (None, 32, 32, 256)  0           re_lu_6[0][0]                    
__________________________________________________________________________________________________
conv2d_7 (Conv2D)               (None, 32, 32, 256)  590080      dropout_6[0][0]                  
__________________________________________________________________________________________________
re_lu_7 (ReLU)                  (None, 32, 32, 256)  0           conv2d_7[0][0]                   
__________________________________________________________________________________________________
dropout_7 (Dropout)             (None, 32, 32, 256)  0           re_lu_7[0][0]                    
__________________________________________________________________________________________________
max_pooling2d_3 (MaxPooling2D)  (None, 16, 16, 256)  0           dropout_7[0][0]                  
__________________________________________________________________________________________________
conv2d_8 (Conv2D)               (None, 16, 16, 512)  1180160     max_pooling2d_3[0][0]            
__________________________________________________________________________________________________
re_lu_8 (ReLU)                  (None, 16, 16, 512)  0           conv2d_8[0][0]                   
__________________________________________________________________________________________________
dropout_8 (Dropout)             (None, 16, 16, 512)  0           re_lu_8[0][0]                    
__________________________________________________________________________________________________
conv2d_9 (Conv2D)               (None, 16, 16, 512)  2359808     dropout_8[0][0]                  
__________________________________________________________________________________________________
re_lu_9 (ReLU)                  (None, 16, 16, 512)  0           conv2d_9[0][0]                   
__________________________________________________________________________________________________
dropout_9 (Dropout)             (None, 16, 16, 512)  0           re_lu_9[0][0]                    
__________________________________________________________________________________________________
conv2d_transpose (Conv2DTranspo (None, 32, 32, 256)  524544      dropout_9[0][0]                  
__________________________________________________________________________________________________
concatenate (Concatenate)       (None, 32, 32, 512)  0           conv2d_transpose[0][0]           
                                                                 dropout_7[0][0]                  
__________________________________________________________________________________________________
conv2d_10 (Conv2D)              (None, 32, 32, 256)  1179904     concatenate[0][0]                
__________________________________________________________________________________________________
re_lu_10 (ReLU)                 (None, 32, 32, 256)  0           conv2d_10[0][0]                  
__________________________________________________________________________________________________
dropout_10 (Dropout)            (None, 32, 32, 256)  0           re_lu_10[0][0]                   
__________________________________________________________________________________________________
conv2d_11 (Conv2D)              (None, 32, 32, 256)  590080      dropout_10[0][0]                 
__________________________________________________________________________________________________
re_lu_11 (ReLU)                 (None, 32, 32, 256)  0           conv2d_11[0][0]                  
__________________________________________________________________________________________________
dropout_11 (Dropout)            (None, 32, 32, 256)  0           re_lu_11[0][0]                   
__________________________________________________________________________________________________
conv2d_transpose_1 (Conv2DTrans (None, 64, 64, 128)  131200      dropout_11[0][0]                 
__________________________________________________________________________________________________
concatenate_1 (Concatenate)     (None, 64, 64, 256)  0           conv2d_transpose_1[0][0]         
                                                                 dropout_5[0][0]                  
__________________________________________________________________________________________________
conv2d_12 (Conv2D)              (None, 64, 64, 128)  295040      concatenate_1[0][0]              
__________________________________________________________________________________________________
re_lu_12 (ReLU)                 (None, 64, 64, 128)  0           conv2d_12[0][0]                  
__________________________________________________________________________________________________
dropout_12 (Dropout)            (None, 64, 64, 128)  0           re_lu_12[0][0]                   
__________________________________________________________________________________________________
conv2d_13 (Conv2D)              (None, 64, 64, 128)  147584      dropout_12[0][0]                 
__________________________________________________________________________________________________
re_lu_13 (ReLU)                 (None, 64, 64, 128)  0           conv2d_13[0][0]                  
__________________________________________________________________________________________________
dropout_13 (Dropout)            (None, 64, 64, 128)  0           re_lu_13[0][0]                   
__________________________________________________________________________________________________
conv2d_transpose_2 (Conv2DTrans (None, 128, 128, 64) 32832       dropout_13[0][0]                 
__________________________________________________________________________________________________
concatenate_2 (Concatenate)     (None, 128, 128, 128 0           conv2d_transpose_2[0][0]         
                                                                 dropout_3[0][0]                  
__________________________________________________________________________________________________
conv2d_14 (Conv2D)              (None, 128, 128, 64) 73792       concatenate_2[0][0]              
__________________________________________________________________________________________________
re_lu_14 (ReLU)                 (None, 128, 128, 64) 0           conv2d_14[0][0]                  
__________________________________________________________________________________________________
dropout_14 (Dropout)            (None, 128, 128, 64) 0           re_lu_14[0][0]                   
__________________________________________________________________________________________________
conv2d_15 (Conv2D)              (None, 128, 128, 64) 36928       dropout_14[0][0]                 
__________________________________________________________________________________________________
re_lu_15 (ReLU)                 (None, 128, 128, 64) 0           conv2d_15[0][0]                  
__________________________________________________________________________________________________
dropout_15 (Dropout)            (None, 128, 128, 64) 0           re_lu_15[0][0]                   
__________________________________________________________________________________________________
conv2d_transpose_3 (Conv2DTrans (None, 256, 256, 32) 8224        dropout_15[0][0]                 
__________________________________________________________________________________________________
concatenate_3 (Concatenate)     (None, 256, 256, 64) 0           conv2d_transpose_3[0][0]         
                                                                 dropout_1[0][0]                  
__________________________________________________________________________________________________
conv2d_16 (Conv2D)              (None, 256, 256, 32) 18464       concatenate_3[0][0]              
__________________________________________________________________________________________________
re_lu_16 (ReLU)                 (None, 256, 256, 32) 0           conv2d_16[0][0]                  
__________________________________________________________________________________________________
dropout_16 (Dropout)            (None, 256, 256, 32) 0           re_lu_16[0][0]                   
__________________________________________________________________________________________________
conv2d_17 (Conv2D)              (None, 256, 256, 32) 9248        dropout_16[0][0]                 
__________________________________________________________________________________________________
re_lu_17 (ReLU)                 (None, 256, 256, 32) 0           conv2d_17[0][0]                  
__________________________________________________________________________________________________
dropout_17 (Dropout)            (None, 256, 256, 32) 0           re_lu_17[0][0]                   
__________________________________________________________________________________________________
conv2d_18 (Conv2D)              (None, 256, 256, 1)  33          dropout_17[0][0]                 
==================================================================================================
Total params: 7,759,521
Trainable params: 7,759,521
Non-trainable params: 0
__________________________________________________________________________________________________
… 